checkpoint_actor.pth (torch_old, 159230 bytes, 6 tensors)

fc1.weight f4 [256, 24]
000000 65 ac 83 3f 40 a7 0b 3e 0e 16 9a 3c 8e 9f a1 be
       1.0286986 0.1363802 0.018809345 -0.31567043
000010 1d 29 99 3d 32 f8 34 bd b5 73 d2 bd f8 f4 c9 be
       0.07478545 -0.04418201 -0.102759756 -0.3944471
000020 5c ed 83 3f c0 de 1e 3e 12 82 84 39 dc 5e c7 3c
       1.0306811 0.1551466 0.00025273912 0.024337225
000030 53 2d 36 3d 97 94 07 bf 9e 56 36 3d fa 9a 7e 3c
       0.04447682 -0.52961105 0.0445162 0.015539879
000040 b0 d9 08 3f d2 05 3f 3e 47 28 76 be e3 92 7d be
       0.53457165 0.18654564 -0.24038802 -0.24763064
000050 36 ed 80 bd be 30 e1 bf 8d 50 54 be 3b 1f 2b be
       -0.062952444 -1.7593 -0.20733853 -0.16711132
000060 27 bc 84 3f 99 4c e4 3f 40 af 79 bc 7d 19 ee bc
       1.036992 1.7835876 -0.015239537 -0.029064888
000070 a8 6c a3 be 4b 22 b7 3d e0 ee 37 bb 2d 41 cc bc
       -0.31918836 0.08942088 -0.0028065965 -0.024933422
000080 0e 83 c8 3e ae 6c fb 3f 19 f8 bf 3c a3 5c 08 be
       0.39162487 1.9642541 0.023433732 -0.13316588
000090 73 b6 a1 be 77 31 22 bf 8a 24 81 3d bc 5a d1 bc
       -0.3158451 -0.6335673 0.063057974 -0.02555596
0000a0 f4 44 01 3e 72 20 00 40 f4 47 80 3b da e6 9b be
       0.1262396 2.0019803 0.0039148275 -0.30449563
0000b0 b2 ae 80 be b2 7d 9c bf af 5b 28 3d 2e 40 7b be
       -0.25133282 -1.2225859 0.04110306 -0.24536201
0000c0 88 b5 ce 3e be 24 9f 3e 82 b6 54 bd 71 2c 84 be
       0.40372872 0.3108272 -0.051931866 -0.25815156
0000d0 5d ac 3b 3d df 18 a1 bf b1 12 c8 bd b8 c1 62 be
       0.045818675 -1.2585715 -0.0976919 -0.2214421
0000e0 f2 d1 9c 3e 3c 91 82 3e 4e b4 d6 bd 2e e3 63 3e
       0.30628926 0.2550143 -0.10483609 0.22254631
0000f0 b1 ea 1e 3d a7 40 09 c0 bf 48 c6 bd 72 31 65 3e
       0.038798038 -2.144571 -0.09681844 0.22382143
000100 9e 22 9e 3e f1 60 db 3e bf 1f 0f be 90 6c 94 3e
       0.30885786 0.42847398 -0.13976954 0.28989077
000110 b7 76 7d 3d db e5 03 c0 0d b0 06 be 7f be 9e 3e
       0.061880793 -2.0609043 -0.13153096 0.31004712
000120 ca b8 c5 bd f1 d9 a5 be 6b 05 7c bb 7b fc 91 bc
       -0.09654386 -0.3239284 -0.0038455378 -0.017820587
000130 29 ac 0a 3e 09 a7 af 3f f1 83 1e 3c 5a 4e 1b bd
       0.13542236 1.372285 0.009675012 -0.03791652
000140 01 59 ae bd c4 92 83 be f5 de cc 3c 62 c8 4e bd
       -0.0851307 -0.2569791 0.025008658 -0.05048407
000150 1a b4 f8 3d c0 d4 f6 3e 03 1e 07 bc 39 b4 93 bd
       0.12143727 0.4820919 -0.008246901 -0.07212109
000160 15 4a 21 be 24 53 3b be aa e1 67 bc 13 06 29 3d
       -0.15750916 -0.18293434 -0.014152924 0.04126556
000170 c6 5b a7 3e 31 a9 25 c0 1e 20 cd 3c a8 b9 94 3d
       0.32687205 -2.5884516 0.025039729 0.072619736
000180 8d ed 2e 3d 46 6e e9 3e 51 50 22 bc a5 f3 91 3d
       0.042707015 0.45591944 -0.009906844 0.0712655
000190 b2 c1 43 3e 6e b7 a9 bd 63 d5 73 3c 95 e0 08 3e
       0.19116858 -0.082869396 0.014882418 0.13366921
0001a0 d5 29 5d 3e 62 b6 e4 3e 1b 93 e6 bd a3 55 91 be
       0.21597989 0.44670397 -0.11258527 -0.28385648
0001b0 1f 45 90 bc 26 c9 5f be b4 b3 34 be 09 d9 c4 be
       -0.017611085 -0.21854076 -0.17646676 -0.38446835
0001c0 15 95 c2 3e 68 43 ff 3e 78 c5 cc 3d 2f 4c 4f be
       0.38004366 0.49856114 0.09998602 -0.20243905
0001d0 cc 5b 90 be 39 46 d9 bd 88 e0 a1 3d 21 fc 3a be
       -0.28195035 -0.10609097 0.07904154 -0.18260242
0001e0 be d1 23 3f 04 66 eb be 8d 04 9a bd 06 37 06 3e
       0.63991916 -0.4597627 -0.07520399 0.13106927
0001f0 28 6a bd 3e fa 8d e3 be b9 bd 80 bd c3 ea 37 3e
       0.36995053 -0.44444257 -0.06286187 0.17960648
000200 3c 2a 01 3f 16 e2 fa be 0b 22 59 bc f7 64 8a 3e
       0.5045507 -0.49000615 -0.013252745 0.27030155
000210 68 8a 73 3e 5e 8a 32 bf 49 6b 78 bb e9 5e b5 3e
       0.23783267 -0.6974238 -0.0037905744 0.35423973
000220 38 2c 07 3f c6 74 fb be 7e 89 35 bd 1f fb 2a 3f
       0.5280185 -0.4911253 -0.044320576 0.6678943
000230 f4 27 86 3d 3d cc 5b bf 95 ac d9 bc 45 48 3c 3f
       0.06550589 -0.8585852 -0.026571551 0.73547775
000240 fc a4 b7 3f 3e c7 98 3f 4f e2 6e 3d 19 c8 bc 3e
       1.4347224 1.1935804 0.058321293 0.36871412
000250 22 2b f9 be dc 81 8d bf d1 46 2a 3b 9d d5 ad 3e
       -0.4866572 -1.1055255 0.0025982151 0.33952036
000260 45 3f 6a bc 4c 93 6c 3e c0 80 9e bd 2c f4 ab 3e
       -0.014297311 0.23103064 -0.07739401 0.33584726
000270 d4 10 dc 3e 2a e8 c8 3e b7 84 12 bd c8 ba e7 3e
       0.4298159 0.39239627 -0.035771098 0.4525969
000280 3a e0 c3 3e d8 66 f7 3e 40 06 0a 3e a5 94 d1 be
       0.3825701 0.4832065 0.13478947 -0.4093372
000290 65 02 31 3e 46 d2 2e 3e 98 b6 87 3d 39 8e ee be
       0.1728607 0.170724 0.06626624 -0.46592882
0002a0 c9 63 e9 3e b6 e5 83 3f 46 5a 80 3c 34 a2 1b be
       0.45583943 1.0304477 0.015668046 -0.15198594
0002b0 49 f4 e0 be 79 04 cd be 0b bf 21 bd 8d 41 93 bd
       -0.43936375 -0.40042475 -0.039488833 -0.07190237
0002c0 56 e7 06 3f 03 a5 83 3f 9a 6a 9b bd 9e 83 fc be
       0.5269674 1.0284733 -0.07588692 -0.49319166
0002d0 2d 26 87 3e d4 db 38 3d 5e 2c c5 bc 61 e3 02 bf
       0.26396313 0.04513152 -0.024069007 -0.511282
0002e0 a2 86 f4 3e ef 9e 4d 3f f1 6f 09 3e 8b 83 0b bf
       0.47758967 0.8032064 0.13421609 -0.54497594
0002f0 dc 61 12 3f ed 53 72 3d 45 db fe 3d 03 15 f3 be
       0.5718057 0.05916207 0.12444166 -0.47476968
000300 06 3d 89 be 80 34 8e bf b4 f1 07 bd 1d f8 b3 3e
       -0.2680437 -1.1109772 -0.03318949 0.35150233
000310 e1 c7 83 3e 28 f9 47 bd d6 77 59 3c 5d 13 d4 3e
       0.25738433 -0.0488216 0.0132732 0.41421023
000320 a4 8c 1f be e3 91 85 bf b0 b2 20 bc f3 e6 3b bc
       -0.15580994 -1.0435146 -0.009808227 -0.011468637
000330 ff 3a a5 bd de c8 23 bf 6e 15 86 bc a0 e7 57 bd
       -0.08067893 -0.63978374 -0.01636764 -0.05271113
000340 13 e1 6b be 1e fe 8e bf 7c 6b e0 bb 08 8d 00 be
       -0.23035078 -1.11713 -0.0068487506 -0.12553799
000350 2c 4a 22 bf bc 8e 86 bf 82 ca 48 bd d3 ff 1d be
       -0.6339443 -1.0512309 -0.04902125 -0.1542962
000360 63 b4 30 3f f3 ad 17 3f 29 e1 87 bd 10 d3 f3 be
       0.6902525 0.592498 -0.06634743 -0.47621965
000370 96 f1 1f 3f ed ff 0e bf f2 ad 78 bc da 01 f8 be
       0.62478006 -0.5585926 -0.015178191 -0.48438913
000380 e2 c2 f8 3e 1b 41 d3 3e 51 63 00 be a2 f2 bb be
       0.48586184 0.4126061 -0.12537886 -0.36708552
000390 9a c9 a8 3e d5 40 a5 be ba 6e 1a be e8 8e a5 be
       0.3296631 -0.32276025 -0.15081301 -0.3233559
0003a0 35 59 eb 3e 61 7f 12 3f 15 f3 c2 bd 50 0e f7 3e
       0.45966497 0.57225615 -0.095190205 0.48253107
0003b0 96 4d 7f 3e 8c 71 82 bf 83 dc 70 bd 54 9e f3 3e
       0.2493194 -1.0190902 -0.058804046 0.47581732
0003c0 12 36 00 be 50 49 79 3f d3 fc 99 3c f7 53 8b be
       -0.12520626 0.9737749 0.018797314 -0.27212498
0003d0 e1 5f a5 3c d2 e6 0e 3d 54 dc 6f 3d 89 51 84 be
       0.02018732 0.034888096 0.05855973 -0.25843456
0003e0 35 92 cc 3c 47 3f 73 3f df d5 3c bd a8 b8 5c be
       0.02497206 0.9501843 -0.0461024 -0.21554816
0003f0 3f 6d cb 3d 69 80 13 bf d6 e4 30 bd 96 c2 08 be
       0.099329464 -0.57617813 -0.043186985 -0.13355479

fc1.bias f4 [256]
000000 dd 4d b2 bd bf 49 ab 3e e0 86 48 be 7d 71 24 3f
       -0.087062575 0.334547 -0.195827 0.6423567
000010 e8 05 77 bf de 49 ff be 87 10 8d be 6c 68 fa be
       -0.9649339 -0.49861044 -0.27551672 -0.48907793
000020 33 fe 1e 3f c2 24 73 bf c1 d5 99 3d be 49 2e 3e
       0.6210663 -0.9497796 0.075114734 0.17020318
000030 f7 bf 1e bf 00 56 f9 bd 69 f4 00 bf 10 b9 37 3d
       -0.62011665 -0.12174606 -0.5037294 0.044854224
000040 1a 95 09 bf 41 23 c9 be 5f 24 79 3e 7c 74 5e bf
       -0.53743136 -0.3928471 0.2433028 -0.8689649
000050 f3 68 a0 3c 3f 79 13 bf 90 3c 0a be a3 4c 30 be
       0.019581294 -0.5760688 -0.13499665 -0.17216735
000060 e6 70 fe 3c f6 c2 5c bf 68 9a 2d be 7c 75 48 be
       0.031059694 -0.86234987 -0.16953433 -0.19576067
000070 19 db 55 bf 3c 83 02 bf 8b 9a 8d 3e 73 84 52 3e
       -0.8353744 -0.509815 0.2765697 0.20558338
000080 b5 48 10 bf 5c c2 af bd e7 db ff be 35 cb 39 bf
       -0.5636094 -0.08581993 -0.4997246 -0.72575694
000090 a1 4b 23 bf 5b a4 10 3e 3f b2 3b bd 0c a2 46 be
       -0.63787276 0.14125197 -0.045824286 -0.19397753
0000a0 c0 85 31 bf 61 54 1c 3d e6 b0 60 bf 62 54 11 3e
       -0.6934471 0.038166407 -0.87769926 0.14192346
0000b0 b0 94 1b bf d0 25 5a 3e 90 6a 10 3e ad 91 03 bf
       -0.60773754 0.21303487 0.1410315 -0.5139416
0000c0 26 85 8c be b7 ef 8a bf be 89 72 bf 02 2f 91 be
       -0.27445334 -1.0854405 -0.9474143 -0.28356177
0000d0 6f 4d f1 be 22 e2 6b 3e f0 5d 4c be 15 92 53 3d
       -0.4712939 0.23035482 -0.1995771 0.051652987
0000e0 29 f0 dd bb 57 00 32 bf 83 ca 25 be 64 a9 93 be
       -0.006773014 -0.6953177 -0.16190533 -0.28840172
0000f0 5e 37 dc bd bc 69 87 bf 03 64 0b bf 2f 6a 25 be
       -0.10752748 -1.0579143 -0.5444948 -0.16153787
000100 ed a7 57 bf 74 02 da be a5 23 24 be 00 28 58 bf
       -0.8424061 -0.42579997 -0.16029222 -0.84436035
000110 63 4a db be c2 14 ad 3d 83 25 1b be 16 29 2f bf
       -0.4283019 0.08451225 -0.15151028 -0.6842207
000120 e1 8e df be 85 de ae be a8 b6 69 3b 7f 69 25 bf
       -0.43663695 -0.34154144 0.003566185 -0.646141
000130 29 e2 d2 3e 0c 66 0f bf e6 ef 4b be 50 a2 12 bf
       0.41188172 -0.56015086 -0.19915733 -0.5727892
000140 1c d8 b4 bd 91 64 af be b9 67 b5 bc a9 14 56 3e
       -0.08830282 -0.34256414 -0.022144185 0.20906319
000150 98 52 ed be 93 ba e4 be 8b ee b3 be 14 a6 3e bf
       -0.46352077 -0.44673595 -0.3514293 -0.74472165
000160 a9 e7 56 3f e5 f5 a1 3d 0c 12 73 3e 1d 7d b1 3e
       0.83947235 0.07908229 0.23737353 0.34665766
000170 61 d2 c2 be 6d 6c 2b 3d e4 bd 80 3e 6b 98 7f 3f
       -0.3805113 0.04185145 0.25144875 0.99841946
000180 ca c7 51 bf 92 b1 b4 3e 4d 9e ac be 63 5d bc be
       -0.8194548 0.35291725 -0.33714524 -0.36789998
000190 8e 18 ab 3e 6d 19 3f be 3d 03 5a be 80 a8 8c be
       0.3341717 -0.18662043 -0.21290298 -0.27472305
0001a0 a5 f9 98 3c 2f ca 1b bf 45 e0 83 be d5 61 63 be
       0.018673727 -0.6085538 -0.25757042 -0.22205289
0001b0 00 34 06 bf c8 42 7f 3c d2 d1 ee be c0 d9 2e bf
       -0.52423096 0.015579887 -0.46644455 -0.6830101
0001c0 91 bf c5 be 5c cf 74 bf 69 40 74 be d3 3c 3a bf
       -0.38622716 -0.95628905 -0.23852696 -0.7274906
0001d0 06 f5 56 bf e3 18 8a 3d c5 8d 1c be 0b 58 1a bf
       -0.83967626 0.06743028 -0.15288456 -0.6029059
0001e0 29 68 ea be bd cc 06 bf b9 2e 0a bf 9a e5 79 3e
       -0.45782593 -0.52656156 -0.53977543 0.24403992
0001f0 50 55 92 bd f0 e1 29 bf a8 c8 c0 bd 4b 44 57 be
       -0.07145178 -0.6636038 -0.09413272 -0.21022145
000200 8d 6e 9d bf 2d 33 8e be d0 6f ed be ef 4c 1f be
       -1.2299362 -0.2777342 -0.4637437 -0.15556692
000210 c3 f4 a1 be a2 89 b1 be fb 51 64 be 8c 91 02 3f
       -0.3163205 -0.34675318 -0.22296898 0.51003337
000220 16 ce f9 be ef 7e 2d bf 21 98 c6 be 5f ad e6 be
       -0.48790044 -0.6777181 -0.3878794 -0.45054147
000230 7b 95 52 be ca 4c 13 be ef 91 83 bf be 3e 45 be
       -0.20564835 -0.14384761 -1.027891 -0.19262215
000240 0e 9e 0a bf 72 cb 22 3e 8e 22 ac bd 32 ab 2e bf
       -0.5414742 0.1589792 -0.08405028 -0.68229973
000250 cc 85 68 be d7 78 4f 3c b9 1e 13 bf ee 17 c8 bd
       -0.2270729 0.012663088 -0.57468754 -0.09770189
000260 80 b3 05 bf 82 82 12 bf 63 d6 64 be 77 74 f5 3e
       -0.5222702 -0.5723039 -0.22347407 0.47940418
000270 f9 78 87 bf 3c b0 2d bf eb 83 2e 3e 42 e7 71 bf
       -1.0583793 -0.6784704 0.1704251 -0.94493496
000280 08 75 f3 be fe 08 29 be 46 35 54 bf 62 e5 fa be
       -0.47550225 -0.16507336 -0.8289379 -0.4900313
000290 a3 fa 87 be d5 1d 62 bf 34 40 e6 bd 97 33 59 bf
       -0.26558408 -0.8832677 -0.112427145 -0.84844345
0002a0 ff 15 45 3f b3 97 39 bf fe dd 71 be 12 aa 24 3f
       0.7698669 -0.724971 -0.2361984 0.64322007
0002b0 db 8e d7 be a9 cb 91 3e e7 5b 67 be 1b 71 35 bf
       -0.42101178 0.28475693 -0.22593652 -0.7087571
0002c0 6a 72 bb 3e a5 42 6d 3e 08 16 c8 be 33 73 85 be
       0.36610729 0.23169954 -0.39079309 -0.26064453
0002d0 52 35 37 bf bd e2 a2 be 89 7e cb be 24 80 04 3e
       -0.71565735 -0.31813613 -0.39744976 0.12939507
0002e0 a2 66 a6 bf 34 d3 3c bf a7 0b 2c bf e8 16 5e bf
       -1.3000071 -0.7375977 -0.6720528 -0.867537
0002f0 04 9c 41 3f 60 3b cd be af 07 d6 be f8 02 03 be
       0.75628686 -0.40084362 -0.41802737 -0.12794101
000300 5d 16 1b bd be 78 a1 bd f7 93 16 bf 12 36 1c bf
       -0.037863124 -0.07884358 -0.58819526 -0.61020005
000310 57 e0 fd be e4 5d e3 be ca 87 2e 3a 80 84 ff be
       -0.4958522 -0.4440757 0.00066578074 -0.49905777
000320 ee b0 cb 3d 54 f5 b0 be f2 14 99 3e 95 47 29 bf
       0.09945856 -0.3456217 0.29898793 -0.6612485
000330 5f d2 2b bf 28 52 20 bd 1c fc 14 bf 6a 00 45 bf
       -0.67117876 -0.03914085 -0.5819719 -0.76953757
000340 b0 b7 c2 bd da 90 8e be d8 fc 3b bf 16 f7 18 3e
       -0.09507692 -0.27844888 -0.73432684 0.14938006
000350 8b ff 83 bf 98 ff 96 3c 17 4c da bd 5f f4 98 bd
       -1.031236 0.018432423 -0.10659044 -0.07468485
000360 bc 39 5a bf 62 6a eb 3c 76 a0 0d bf bb 01 83 be
       -0.85244346 0.02873725 -0.5532297 -0.25587258
000370 b6 49 41 bf 26 ed 32 3f 5b 8a 3f bf 50 bc cd be
       -0.755031 0.6989311 -0.7482049 -0.40182734
000380 70 44 04 bf b1 d3 89 be 62 fb 3d 3e 84 9b 2e 3e
       -0.5166693 -0.2691932 0.18552926 0.17051512
000390 77 12 2f be 6b 9a 05 3e 15 89 0d bf 31 18 4e 3e
       -0.17096888 0.13047187 -0.55287296 0.20126416
0003a0 00 dc 16 bf 51 2b e5 3e ec c9 d0 be 4e 86 a9 3e
       -0.58929443 0.4475961 -0.40779054 0.3311028
0003b0 91 bd 38 3f d1 84 6a bd c0 d0 6c bf 66 6a 7c be
       0.72164255 -0.05725557 -0.9250603 -0.24649963
0003c0 3c d6 9c 3e db 83 7f bf b4 50 e6 be 91 a4 80 bf
       0.30632198 -0.9981057 -0.44983447 -1.0050222
0003d0 82 56 e8 bc f1 c0 02 3b 95 88 33 bf a2 a8 c0 3e
       -0.028361563 0.0019951428 -0.7013028 0.37628657
0003e0 42 0f 1c bf 7f c9 6b be 9b 22 0a bf ab 59 c5 be
       -0.6096078 -0.23026083 -0.53959054 -0.38544974
0003f0 44 8b 1f 3d 13 6f 6c 3c 03 dd ab be e3 20 1e bf
       0.038951173 0.014430779 -0.33567056 -0.6176893

fc2.weight f4 [128, 256]
000000 02 a2 d0 bd f3 90 7a 3d 59 8f 07 3c f0 63 a9 bd
       -0.101871505 0.06117339 0.008273923 -0.08271015
000010 8c 39 83 bd 35 2e 89 bc 6f 1b 24 3d 6e 59 ba bd
       -0.064074606 -0.016745666 0.040065225 -0.090990886
000020 b9 c4 6b be db f0 9c bd 0e 3a 21 bd 41 49 3e 3d
       -0.23024262 -0.07663127 -0.039362006 0.04645658
000030 d1 ed bd bc a8 c8 b8 3b 95 5f 80 bd 3b 37 54 bd
       -0.023184689 0.0056391545 -0.06268231 -0.051810484
000040 1b d6 03 be ba 5f 8d bc 6e 27 0e 3d ea 68 08 3d
       -0.12874644 -0.01725756 0.03470557 0.03330318
000050 4b 6b 35 be 36 4e 26 bd 78 95 2d be c4 2a e6 bc
       -0.1771671 -0.04060193 -0.16951549 -0.028096564
000060 41 e1 1d bd 87 d1 b1 bc e9 6d d1 3d 4c e0 fd 3c
       -0.038544897 -0.021706356 0.10226042 0.030990742
000070 7e 88 84 bd d5 90 3e be ac 92 22 3d 08 5d 4e bd
       -0.06471346 -0.18609937 0.03969066 -0.05038169
000080 cc 37 fd bd eb 96 64 3c 33 75 b8 bb 9d 05 01 3d
       -0.12364158 0.013951997 -0.0056292056 0.031499494
000090 4e e9 9a be af a8 00 be b1 11 ed 3c 23 87 9a 3d
       -0.30256122 -0.12564348 0.0289391 0.075453065
0000a0 e0 53 8b 3c 15 d2 74 bd 88 1a e6 bc 40 dd ce 3d
       0.017007768 -0.059770662 -0.028088823 0.10100794
0000b0 e0 63 86 3d 69 03 c9 bc 05 db 3f 3c c2 d0 73 3d
       0.065620184 -0.024537759 0.011709933 0.05952526
0000c0 b2 2d 8a bc 81 cd 42 bd e5 c6 ee bd e6 aa 13 be
       -0.016867492 -0.047559265 -0.1165903 -0.14420661
0000d0 c2 1f ae bd 6d 3a 48 be 94 2d ca bd 3f 6e da bd
       -0.08502151 -0.19553538 -0.098719746 -0.10665559
0000e0 b5 b1 bb bd 10 24 27 3d 40 35 c9 bc 14 59 18 be
       -0.09164754 0.040805876 -0.024561524 -0.1487773
0000f0 bc fd 3a bd 87 1e 13 be 0a 7d 3d bd 23 5c c5 bc
       -0.045652136 -0.14367114 -0.046261825 -0.024091786
000100 a4 fb 62 3a 69 3c 1a be be 1e 9f bd 9e 60 d0 bd
       0.0008658713 -0.15062107 -0.077695355 -0.10174678
000110 79 77 85 3c d3 fc 0e be 7c 4c 4e be ab ef 57 bd
       0.01629232 -0.13963632 -0.20146364 -0.0527188
000120 1f d1 53 3e 10 f2 2b 3d 72 9c 93 3d b8 8d e4 bd
       0.20685242 0.041978896 0.07207574 -0.11159843
000130 c0 50 97 bd 03 cf d4 bd a9 cc 74 3c 0a 17 b1 bd
       -0.07388449 -0.10391047 0.014941373 -0.086469725
000140 c5 bb ba bb b1 20 94 3d 57 13 67 bc dc 74 cc 3c
       -0.0056986534 0.07232798 -0.014103732 0.024958067
000150 6d b0 4b bd ee 10 bc bc 0f 97 51 be 5c b5 87 bc
       -0.0497288 -0.022957291 -0.2046778 -0.016565971
000160 a7 60 c9 bd 8f 9a 77 3d 40 d0 8c bd c3 29 25 3d
       -0.09832888 0.060450133 -0.06875658 0.04032303
000170 07 e2 d2 3c a5 c3 0d be 45 58 38 bd 95 f0 2c be
       0.025742544 -0.13844164 -0.045006055 -0.1688865
000180 50 72 9b be e3 16 00 bc 71 9b 45 be 6e d7 32 be
       -0.3036065 -0.007817957 -0.19297577 -0.17464992
000190 5f c4 8d bd 40 2e 86 bd 06 b5 fb bd 5f f7 e2 bd
       -0.069222204 -0.0655179 -0.12290387 -0.110823385
0001a0 d1 0c 45 bd e2 e1 89 bd 67 76 3f 3d 1e fe b9 bd
       -0.048107926 -0.06732537 0.046743777 -0.09081672
0001b0 d1 cf 7b be ed 6a 24 bd 79 00 11 3d 74 5f c0 3b
       -0.24590994 -0.040141035 0.03540084 0.005870754
0001c0 8a a8 a1 3d 64 c1 a8 bb 9e 75 be bb f1 72 08 bc
       0.078934744 -0.005150007 -0.005812361 -0.008328185
0001d0 f8 bb 49 bd 8e 29 99 bd fd 37 bc 3d d0 50 6d 3c
       -0.049251527 -0.07478629 0.091903664 0.014484599
0001e0 ca 04 09 be 98 b4 de bc a7 17 1a 3d 66 5a c4 bd
       -0.13380733 -0.027185723 0.037620213 -0.09587555
0001f0 38 2a 95 bd 3e 81 31 bd 3b 5c 50 bd 1b 63 90 bd
       -0.07283443 -0.043336146 -0.050869208 -0.07050153
000200 fb 2b 27 bd 81 1c e9 ba ba 9b 96 3d 3d 65 a4 3c
       -0.040813427 -0.0017784984 0.07353921 0.020067805
000210 39 0b 0f 3d 09 b4 91 3b bb fc 7c 3d ca bf 45 be
       0.034922812 0.0044465107 0.06176446 -0.19311443
000220 ff f8 e6 3c 22 1a 8f 3c 04 24 d2 bd c7 39 e5 bd
       0.028194902 0.017468516 -0.10260776 -0.11192661
000230 b2 f0 27 be 16 61 99 bd b3 ae 40 bb 45 81 00 bd
       -0.16400412 -0.07489221 -0.0029401004 -0.03137328
000240 7b e4 60 3c 2a 9c e8 3c 46 07 fb bb 8e 76 ea bd
       0.013726349 0.028394777 -0.007660779 -0.11448394
000250 40 bc 2e 3d 82 48 de bd 0e 88 99 3a 1e 02 b6 3d
       0.042659998 -0.108536735 0.0011713521 0.088871226
000260 5c 5b 12 bd 00 53 c8 3d 57 0c 18 be f4 6c 53 be
       -0.03573166 0.09781456 -0.14848457 -0.20647031
000270 da 53 12 bd 5c 82 3f be 38 07 08 be e3 95 e1 bd
       -0.0357245 -0.18702072 -0.13284004 -0.11014917
000280 17 4c 5b be 54 29 1c 3d 1e 83 01 be 1d c2 b7 bd
       -0.21415745 0.03812535 -0.12647673 -0.08972571
000290 e8 3b 8f bc 36 14 cb bd e7 99 2c be eb 78 e6 bd
       -0.01748462 -0.09915964 -0.16855584 -0.11253532
0002a0 c2 31 a1 bd 14 fe 5e bc 68 38 0a b9 87 ac 61 bd
       -0.07870819 -0.013610382 -0.00013181719 -0.055096176
0002b0 5c c9 0f bd 87 05 bd bd d7 8f a7 bd ae 69 91 3b
       -0.03510414 -0.0922957 -0.08181732 0.004437647
0002c0 cc 4f 79 3d 00 7c 8f bd 80 a6 c6 bd 6f 0d cc 3c
       0.060867116 -0.07006073 -0.09699726 0.02490875
0002d0 51 a5 06 be 4f 2b d0 bc 52 12 27 bd 1b d2 c8 bc
       -0.13149 -0.025411276 -0.040788956 -0.024514249
0002e0 80 64 99 3c b7 43 d2 3d b1 05 c3 bb 9b 45 d6 3d
       0.01872468 0.10266822 -0.005951606 0.10462495
0002f0 6e 7b 35 bd 3e 2b b7 3c c4 58 d8 bb 2e 3c c8 bd
       -0.044307165 0.022359487 -0.0066023786 -0.09777103
000300 36 54 83 bd 2e fd 94 bd d3 e6 3f 3d 46 c7 d7 bc
       -0.06412546 -0.07274853 0.04685099 -0.026340138
000310 84 54 9b bd 20 4a b2 bd 45 e4 5a 3d 3c 75 73 be
       -0.075844795 -0.087055445 0.05344035 -0.2377519
000320 b5 bc d1 bc 1b c6 8d bd b0 22 f7 bd 54 14 59 3d
       -0.025602678 -0.06922551 -0.12067163 0.052997902
000330 16 3b 3e bd 69 af 26 be 59 f3 93 bd 8d 24 38 ba
       -0.046443067 -0.16277851 -0.07224149 -0.00070244895
000340 a7 e9 a3 3d 65 0c 97 bd ea 6e 51 bb e7 a6 ba bd
       0.0800355 -0.07375411 -0.003195698 -0.09113865
000350 7f 98 04 bd e9 1c 2f be a8 94 9d bd c8 23 3d bd
       -0.032371994 -0.17100872 -0.076943696 -0.0461767
000360 63 f1 3e be 5a 87 80 bd 2f b2 80 bd f3 85 db 3c
       -0.18646769 -0.06275816 -0.06283986 0.02679727
000370 3e 50 7b 3d 04 64 b6 bd 77 4a 99 be 30 92 9f bd
       0.06135582 -0.08905795 -0.29939625 -0.07791555
000380 05 02 bd 3d a9 3a 6a be b9 8f d4 bd b4 ef 39 be
       0.09228901 -0.2287394 -0.103789754 -0.18157846
000390 a2 3c c2 3c 4c 49 9e bd fe c0 0e bc 05 fc 9c bd
       0.023710553 -0.07728824 -0.008713005 -0.076652564
0003a0 33 8f 89 be f8 e2 a0 bd 22 ba 8f bd 0c 7f 95 bd
       -0.26867065 -0.07855791 -0.07017924 -0.07299623
0003b0 d3 de 2f be da ed 04 3b 12 53 c4 bd fe ad 0f be
       -0.17174844 0.0020283372 -0.09586157 -0.14031217
0003c0 cf 04 c3 bd 18 f5 fd bd 11 e7 3c 3d e1 9a 16 3d
       -0.095224015 -0.124002635 0.0461188 0.036768798
0003d0 b4 91 ec 3c f9 69 a9 3d f2 91 2f bc 50 c1 dc bc
       0.02887807 0.08272166 -0.010715948 -0.026947647
0003e0 93 99 3d 3d 10 ab 8e 3d c0 fb 30 be 80 e7 a5 3c
       0.046289038 0.06966221 -0.17283535 0.02025199
0003f0 f4 4d 8f bd 59 67 c9 3d 66 2a af bc 37 bb 42 3d
       -0.0699729 0.09834165 -0.021382522 0.047541823

fc2.bias f4 [128]
000000 42 88 3b bd a1 5c 79 bd 60 8a ed bd ba 43 64 bd
       -0.045784242 -0.060879353 -0.115986586 -0.05572865
000010 6e aa d6 be f9 ae ef bd d0 94 96 bd 6d 85 75 bd
       -0.41926903 -0.11703295 -0.073526025 -0.059941698
000020 30 2b 72 bd 24 ae fd bc 38 d1 e8 be 45 d8 1d be
       -0.059123218 -0.030966826 -0.4547212 -0.15414532
000030 d1 17 dd bd 9e 36 77 3d 12 ce b1 bc 86 a9 a2 bd
       -0.10795558 0.06035482 -0.021704707 -0.0794249
000040 e3 dd f2 bd 38 75 21 be 27 7b 88 bd 43 02 3b bd
       -0.11858728 -0.15767372 -0.066641144 -0.045656454
000050 01 87 8d be f3 e4 5a bd 59 6e 80 bd 2c 8d 51 bd
       -0.27642062 -0.053441 -0.06271047 -0.051160023
000060 f6 3c bd bd d1 ab c5 3b d9 87 f0 bd 47 cd d1 bd
       -0.09240143 0.006032445 -0.11744661 -0.10244232
000070 26 ef 8d be af c1 b3 be 22 ce 77 3e 36 d7 f4 be
       -0.27721518 -0.35108706 0.24199727 -0.47820443
000080 c2 88 1c 3e 40 41 10 3e 6d 33 d5 be 6d 89 0f 3d
       0.15286544 0.14087391 -0.41640797 0.03504317
000090 cb 5e 1a be c7 9d 96 be ce a0 03 be ff 84 71 bd
       -0.15075223 -0.2941725 -0.12854311 -0.058964726
0000a0 66 a6 f5 bd 2d 0d cd bd 88 db b7 bd 0a 6b 23 bd
       -0.119946286 -0.10012279 -0.08977419 -0.039897002
0000b0 af 89 ea bd fa 3d 71 3e 6c c0 0b be 4d 2f 99 be
       -0.11452042 0.23558798 -0.13647622 -0.299189
0000c0 ab 47 4a be a4 cb 6c bf 66 52 0b bf b1 ab 56 bf
       -0.19753902 -0.9249823 -0.54422605 -0.8385573
0000d0 35 5f ff bd 69 02 37 be 58 1c c2 bd a5 40 c9 bd
       -0.12469331 -0.17872013 -0.094780624 -0.09826783
0000e0 cf 8a f4 bd 64 2a 8f 3d e0 15 85 bc e2 ea 72 be
       -0.11940538 0.06990507 -0.016245782 -0.23722413
0000f0 9a 91 94 be c6 ad bf bd 37 27 82 be bc 01 10 bf
       -0.29017335 -0.093593165 -0.25420544 -0.56252646
000100 a9 f7 8e bf d4 41 17 bf a9 90 d7 be 67 52 5f be
       -1.116933 -0.5908482 -0.42102554 -0.21808778
000110 b5 aa cf bd 6f b6 2b bf dd 25 57 bd a7 6d 85 be
       -0.10139982 -0.67075247 -0.052526344 -0.2606022
000120 13 ce 32 bf 06 83 df bd c5 7c 9a bd b0 06 14 3e
       -0.69845694 -0.109136626 -0.07543329 0.14455676
000130 87 a4 89 bd f9 f0 ef 3b 58 fa 0c be a4 4b 47 3e
       -0.06720834 0.0073224274 -0.13767374 0.19462448
000140 a7 62 55 bd e9 a1 15 bd 67 34 6d bd a3 b7 3c bd
       -0.052096035 -0.036531363 -0.057911303 -0.046073567
000150 cf 7e cd bd 78 3f 91 be b5 e4 b7 bc 65 97 23 be
       -0.100339524 -0.28368735 -0.022447923 -0.15975721
000160 73 5a c3 bd d0 ae 59 bd 94 3d e7 bd 44 ad 69 bd
       -0.09538736 -0.05314523 -0.11291042 -0.057050005
000170 62 3a a3 bd e2 6e 33 be 5a 62 0a be 4d 46 7f bd
       -0.0797012 -0.17522767 -0.1351408 -0.062322903
000180 75 33 f4 be 7b 54 9b 3e a1 c6 e9 3e b9 e5 1c 3e
       -0.4769551 0.3033789 0.45659354 0.15322007
000190 72 3a d0 bb 57 ac dd be 3e 72 58 bf 25 b9 62 bd
       -0.0063546235 -0.43295547 -0.8454932 -0.05535235
0001a0 f6 9c 02 bf 95 e5 78 bd 70 b1 d2 bc dd 31 bb be
       -0.51020753 -0.06076582 -0.025719374 -0.3656148
0001b0 ff c0 89 3d 34 2d 35 be ae 26 cc be 06 ae 74 3c
       0.06726264 -0.17693025 -0.3987326 0.014934069
0001c0 4f 00 0d bd 2c 06 72 bc 16 91 c8 be 0a ba e1 bd
       -0.034424122 -0.014771979 -0.39173192 -0.11021812
0001d0 6b b8 b9 3e 25 64 0c be 86 ff 11 be 9f 84 97 3e
       0.36273512 -0.13710077 -0.1425763 0.2959337
0001e0 f9 d1 11 be d0 47 9d be 06 48 ee bd 13 6c f9 b9
       -0.14240254 -0.3071885 -0.11634831 -0.00047573503
0001f0 12 dc ad be 9d 3a 08 be 67 54 84 be e6 5a 01 be
       -0.33956963 -0.13303609 -0.25845644 -0.12632331

fc3.weight f4 [2, 128]
000000 c2 d3 ab 3c ed 68 c5 ba db 92 a2 3c 0d e2 5e bc
       0.020974997 -0.0015061178 0.019845417 -0.013603699
000010 ea cd a1 3d 70 35 fc 3b 87 41 27 be 02 7b 9b 3c
       0.07900603 0.0076968 -0.1633359 0.018979553
000020 29 16 50 bd 4a 41 93 3c 18 fd a0 3d 78 39 88 bd
       -0.050802384 0.017975468 0.07860774 -0.06651586
000030 f3 67 e7 be c7 9d 91 bd aa 95 40 bc 93 d7 92 bc
       -0.45196494 -0.07110172 -0.011754433 -0.01792506
000040 fa 20 84 3c a6 b3 12 3d 46 ca 88 bb b3 23 5d be
       0.016129006 0.035815857 -0.0041745035 -0.2159565
000050 49 e3 1d 3d 36 95 9c bb d1 cd 80 bc 07 5d 16 bd
       0.038546834 -0.0047785295 -0.01572314 -0.03670981
000060 3f e5 d0 bc 40 29 b6 bd b1 f1 25 b6 a4 29 45 3c
       -0.025499938 -0.088945866 -2.47276e-06 0.012033854
000070 64 d1 bf 3c bc de 1f bd ad b8 fc 3c 11 6e a2 bd
       0.023415275 -0.039030775 0.030849779 -0.0793115
000080 99 33 3c bd 76 ff f3 3d af ee a6 3d 66 1c c2 3d
       -0.045947645 0.1191396 0.08150994 0.09478073
000090 c9 ee 86 3c cf a7 6b be 65 ec 23 be d5 e0 83 3d
       0.016471284 -0.23013233 -0.16008146 0.06439368
0000a0 f6 97 0b 3d d3 a6 4b 3b a6 47 16 bd 77 cf f6 bb
       0.034080468 0.0031074777 -0.036689423 -0.007532056
0000b0 8b 21 0a bf a3 0b 54 3e 7f 4a 7e bc 82 9d 56 3d
       -0.5395743 0.20707564 -0.015520691 0.052396305
0000c0 e4 70 68 bf 9b a7 8c bd 9a 92 1a be f8 05 81 3e
       -0.9079726 -0.06867906 -0.15094987 0.25199866
0000d0 bd d7 e4 bc 73 0d be 3d 42 2b 39 bd 66 d3 4c 3c
       -0.027934903 0.09279909 -0.04520727 0.012501573
0000e0 10 f4 e9 bc bf 0d 5a be 5d 78 18 be f6 3a 27 bd
       -0.02855876 -0.21294306 -0.14889665 -0.040827714
0000f0 e3 7b 91 bd fc 10 8b bc 32 5c b7 3c f0 26 4e 3e
       -0.07103708 -0.016975872 0.02238283 0.20132041
000100 08 9a 0b 3e 40 8e 6f 3e aa 17 dd 3d 3c 36 b8 be
       0.13632977 0.23394108 0.10795529 -0.35978878
000110 9f 5a 85 3b d6 7e 65 3e 57 a3 7f bd 16 c7 3b 3d
       0.0040696408 0.22411665 -0.062411632 0.04584416
000120 00 31 60 be 8f e0 8b 3c e2 b7 9c be db e1 8d be
       -0.21893692 0.017074851 -0.3060904 -0.27711377
000130 59 57 1b 3c 57 da da 3d fb 80 a4 3e 8e 70 44 bf
       0.0094812745 0.10686176 0.32129654 -0.76734245
000140 09 fe 66 bc 3c 2c 81 3e ef ae 0e bd 24 2c 95 be
       -0.014098653 0.2522906 -0.0348348 -0.2913524
000150 c1 62 03 bd d1 21 b9 3d de 44 fe bb 82 08 5a 3d
       -0.0320766 0.09039653 -0.0077596745 0.05323077
000160 be f9 ba bc 88 17 d4 bb 64 9c 93 bd 58 82 00 3d
       -0.022824164 -0.0064725317 -0.072075635 0.031374305
000170 6a d5 9b 3b 2a f8 a6 bb c8 79 ce bc fd c8 37 3c
       0.0047556655 -0.0050955014 -0.025204554 0.011217353
000180 a6 72 87 3d 0b ac 67 bd f7 31 89 bd 99 07 99 3d
       0.06613664 -0.056560557 -0.06698983 0.07472152
000190 eb c8 11 bb 62 36 0b 3e eb 7f 21 3d 12 d5 50 3b
       -0.0022245 0.13594964 0.039428633 0.003186528
0001a0 b6 d7 55 3d 05 1c 5f be a9 80 20 3a 95 b3 8f be
       0.05220767 -0.21788032 0.00061226875 -0.28066698
0001b0 b9 cd bc be 0e fc 5d 3d 69 5e 52 3d 99 0e 14 3e
       -0.36875704 0.054195456 0.051359568 0.14458694
0001c0 7b 26 ae bc cd 47 9f be fc 32 9b 3d ff 06 fe bc
       -0.021258583 -0.31109467 0.07578084 -0.031009195
0001d0 8d 8d e6 3e 0f 9a f2 bd b0 4f af bc a0 9f 3a 3e
       0.4502987 -0.118457906 -0.021400303 0.18224955
0001e0 51 05 2b be bd 0d 6a 3d d4 bf 16 bd 69 26 16 bc
       -0.16701247 0.057142008 -0.036804035 -0.009164431
0001f0 ce ae da 3d 9a af 2d 3c 76 cf a4 3c 5a f6 ca 3e
       0.106778726 0.010600949 0.020118456 0.39641076
000200 49 fc bb bd 39 f9 2a bd 38 de 4b bd 65 64 33 bd
       -0.09178979 -0.041741583 -0.04977247 -0.043796916
000210 68 0b 0d 3e af f8 fe bc ac 99 27 3f 0b 58 95 bd
       0.13773882 -0.031124441 0.6546886 -0.072921835
000220 d5 4c 95 3e da 0f 01 bc e2 26 c3 3c 46 a0 ac 3e
       0.2916018 -0.007877314 0.023822252 0.3371603
000230 59 3c 9b bc ff b1 35 3e 4f 9b 7e 3c de 28 e8 bc
       -0.018949674 0.17743681 0.015539958 -0.0283398
000240 19 58 70 be 9a 6b 6a bf e7 34 54 bd de b4 32 3f
       -0.23471107 -0.91570437 -0.051808264 0.6980723
000250 c0 5e e3 be 64 4b e2 bc 2a 9f 8b 3a 78 33 93 3b
       -0.44408226 -0.02762384 0.0010652293 0.0044922195
000260 b6 b4 16 3a bc 3a 7e bd 68 50 61 3c da f6 cf bb
       0.0005748974 -0.062067732 0.0137520805 -0.0063465657
000270 8f 4a 96 bd 98 11 32 3d 38 25 84 3f c9 60 6a be
       -0.0733844 0.04347381 1.0323858 -0.22888483
000280 ce fb bb be 17 38 19 bf bb fa 6a 3e ae e8 15 3f
       -0.3671555 -0.5985121 0.22947209 0.58558166
000290 7d 11 21 3e 91 ab cb 3e 1a aa 6f be 00 5d 63 be
       0.15729327 0.39779332 -0.23404732 -0.22203445
0002a0 45 e8 78 3f ca 94 b1 bd 2e 33 43 bc 17 ab eb bb
       0.97229415 -0.086709574 -0.011914058 -0.0071920264
0002b0 b0 46 22 bf 03 79 21 be 00 a5 e1 bc d3 3f d6 be
       -0.6338911 -0.15768819 -0.027544498 -0.4184557
0002c0 3f 92 53 bc 5f 1b 89 3e 8a 64 91 bd 45 0f 1f 3f
       -0.012913286 0.26778695 -0.070992544 0.62132674
0002d0 ad b5 34 3b d2 cd 35 3d 15 c6 83 3d 98 f7 b9 3c
       0.0027574108 0.04438574 0.064342655 0.02270107
0002e0 9b 7e b3 bc 2d c7 ca bf 75 71 49 be 9c 5c 16 be
       -0.021910956 -1.5842034 -0.19672187 -0.14683765
0002f0 c8 9c a7 3e 58 8f 60 bd 16 da af 3f 25 cd 26 3f
       0.32736802 -0.054824203 1.373843 0.65156776
000300 ba 6c 29 3f f1 6a 35 3e 58 b1 a2 be 99 f2 8f bd
       0.6618153 0.17716576 -0.31775928 -0.07028694
000310 08 d1 33 bd 27 32 cc 3e fe 77 87 be d0 9f a7 3e
       -0.04390052 0.39882013 -0.26458734 0.32739115
000320 90 3a 42 be 94 d8 60 bd c7 f5 9f be 36 84 ae 3e
       -0.18967652 -0.054894045 -0.312422 0.34085244
000330 ef 8a ed 3c 89 67 46 be d4 10 17 be e2 3a 3e 3f
       0.028996913 -0.19375433 -0.14752513 0.743086
000340 bf 27 75 39 9b 51 9d 3e a6 ff 08 bd fb 70 d7 bb
       0.00023379827 0.30726323 -0.03344693 -0.0065747476
000350 82 47 1b bd a5 1d e6 bd 48 db 59 bd fa ea 4e be
       -0.037909992 -0.11236123 -0.05318764 -0.20206824
000360 50 a5 3d 3b d3 fe 93 bc ab 35 77 bf fb 2b 4d 3d
       0.0028937645 -0.018065846 -0.96566266 0.05009077
000370 f5 2b d7 3d 55 53 af be b5 6d a6 bc 2a d5 fc bc
       0.10506431 -0.34243265 -0.020315984 -0.030863363
000380 1b 7a 44 bc 9b 5f 9f 3d 17 23 b2 3e 69 c5 0e bf
       -0.011992003 0.07781907 0.34792396 -0.55769974
000390 7c 2f 57 bd 56 83 8b 3f 2c be 33 3f 4b 7e 38 bd
       -0.05253552 1.0899456 0.70212054 -0.045042317
0003a0 08 2e 8a 3f 13 bb 95 bd 39 6d 89 bc c8 a0 4a bc
       1.0795298 -0.07311072 -0.016775714 -0.012367435
0003b0 d1 2f 3e 3e af 60 1d 3f b1 fe b2 be c3 ba 23 bf
       0.18572928 0.6147565 -0.3495994 -0.6395685
0003c0 c8 25 42 bd 63 cf e6 bd 5e 62 80 3e d2 b5 63 bc
       -0.047399312 -0.112700246 0.25075048 -0.01389833
0003d0 a7 24 7c 3d a4 00 f8 bf 56 ad 58 3c f0 f3 85 bd
       0.061558392 -1.9375196 0.01322492 -0.06540668
0003e0 d3 39 bf 3d b6 91 ea 3e 61 70 a9 3e 5b a4 4c be
       0.09337201 0.45814294 0.3309355 -0.19984572
0003f0 94 df 29 bf 75 b5 00 bd d7 47 89 be a8 2b af bc
       -0.6635678 -0.03142305 -0.26812622 -0.021383122

fc3.bias f4 [2]
000000 b7 bd e4 bd ed f6 c8 3f
       -0.11168998 1.5700356
