checkpoint_critic.pth (torch_old, 159740 bytes, 5 tensors)

fcs1.weight f4 [256, 24]
0.061380003 -0.12130578 0.037607346 -0.10595235 0.20851113 0.36959007 -0.043080945 -0.09649035
0.25805518 -0.09468726 0.014615055 -0.21092321 0.028617406 0.44113234 -0.020937035 -0.19317262
0.2651987 0.01323521 -0.016953973 -0.031179424 -0.06836001 0.44043347 0.012659833 -0.08690287
-0.032136533 0.8468077 0.006414936 -0.13904124 0.010360649 -1.3998111 -0.041058224 -0.09741858
0.16853018 0.68066144 0.0130855 -0.29383656 0.24729358 -0.7025876 -0.045493882 -0.36236057
0.17891222 0.55050725 -0.038027536 -0.15226229 0.5322045 -0.36564362 0.024034021 -0.20741864
0.19685826 0.6392654 -0.0845908 0.13483901 0.059446536 -0.7403177 -0.0933756 0.18665588
0.30904958 0.77526724 -0.04787706 0.0026554004 -0.049736466 -0.5074425 0.027877072 -0.007119518
0.77353555 0.7947939 -0.008646395 -0.051411863 -0.31762356 -0.91294664 -0.01600394 -0.004949754
-0.011502028 -0.20987344 -0.021771898 -0.04441638 0.0045263483 -0.33284783 0.00582519 -0.050975252
0.14758967 -0.122040026 0.02883567 -0.086898655 -0.12069758 0.022202633 -0.022603063 -0.12907085
0.08391018 -0.04780882 0.05712785 -0.071091644 0.7485222 -1.1527992 -0.02631796 -0.019921623
0.577901 0.32411253 -0.038572066 -0.09945631 -0.24511804 0.12471266 -0.016813664 -0.124891
0.3753331 0.21612169 -0.11508417 -0.04331478 -0.20715232 -1.3517883 -0.11656733 -0.006927228
0.47973913 0.3121287 0.009181684 0.32575834 0.08468583 -0.17436585 -0.009160091 0.36552203
-0.16551621 0.6199383 -0.0034094541 -0.052791264 -0.04394427 -0.18042207 -0.022904921 -0.049876127
-0.11595132 0.8716594 -0.039768167 0.060382843 -0.11813586 -0.6276033 0.0172643 0.17231287
-0.2551798 1.1228745 0.014341615 0.020011855 0.24321322 -1.9757967 0.0053016134 0.107501194
-0.032164697 0.6518867 -0.039441075 0.4126921 -0.09972534 -0.059531517 -0.008268026 0.41520163
0.082255796 1.0186204 0.04398454 -0.027597375 0.012341507 -0.9933042 -0.047687873 -0.071609125
0.14332055 0.73785245 0.021255981 -0.5831019 0.06487494 -0.96426666 0.018309783 -0.6035215
0.009159715 -0.135273 -0.019509474 -0.08812646 0.21676528 -0.5728998 0.03034837 0.021060145
-0.0432162 -0.09905571 -0.021661777 -0.030078294 0.13594922 -0.1796399 0.036031134 -0.110764116
-0.13619487 -0.043241333 0.010002853 0.05051016 -0.2886333 0.83829993 -0.008753702 -0.00590709
0.5951471 0.23732202 -0.027095856 0.29844287 0.26644447 -0.85339785 -0.0023004028 0.20442423
0.663887 0.2749004 -0.07099131 0.085655384 0.086708315 -0.4985846 -0.07374954 0.06585295
0.87941927 0.36539438 -0.002120206 0.14227562 -0.14834961 -0.3973331 -0.021476068 0.149888
0.063247666 0.80138063 0.03549563 0.008792445 0.50200874 0.043808024 -0.057449125 0.02971831
-0.06558023 0.81460214 0.03656572 0.040062707 0.3322564 0.09317376 -0.033242505 -0.019707091
0.10049946 0.7752192 0.04260199 -0.08845159 0.1263338 0.16168265 -0.041336652 -0.1218032
-0.23095489 0.03698761 0.031060202 -0.017702337 0.45844844 0.30728686 -0.04027905 -0.02754993
0.025467936 0.3234514 -0.040350497 -0.008720917 0.50168353 -0.7078819 0.027015183 0.029360468
00000000: 9969 7b3d 2a6f f8bd 290a 1a3d 8cfd d8bd
00000010: f183 553e e93a bd3e a575 30bd bc9c c5bd
00000020: cf1f 843e 65eb c1bd fc73 6f3c 41fc 57be
00000030: 0d6f ea3c 19dc e13e 2584 abbc 0bcf 45be
00000040: 20c8 873e 7fd8 583c 0fe3 8abc fe6b ffbc
00000050: 5500 8cbd 7f80 e13e 306b 4f3c 22fa b1bd
00000060: 99a1 03bd 64c8 583f 6234 d23b d460 0ebe
00000070: b6bf 293c 032d b3bf ab2c 28bd 6483 c7bd
00000080: 2d93 2c3e d43f 2e3f 9164 563c bf71 96be
00000090: 873a 7d3e c8dc 33bf cb57 3abd 5387 b9be
000000a0: c434 373e 0bee 0c3f c3c2 1bbd a5ea 1bbe
000000b0: 8e3e 083f a435 bbbe ffe2 c43c 8d65 54be
000000c0: 3695 493e e6a6 233f f13d adbd 3d13 0a3e
000000d0: 367e 733d 7685 3dbf b53b bfbd b822 3f3e
000000e0: bf3b 9e3e ea77 463f bc1a 44bd 3a06 2e3b
000000f0: 77b8 4bbd c0e7 01bf 755e e43c d84a e9bb
00000100: 6d06 463f 9d77 4b3f 9ca9 0dbc 3f95 52bd
00000110: 8e9f a2be dfb6 69bf b21a 83bc 8c31 a2bb
00000120: 0173 3cbc 10e9 56be fb5a b2bc f3ed 35bd
00000130: c351 943b 086b aabe 3ce1 be3b 6dcb 50bd
00000140: bf21 173e 1ff0 f9bd c838 ec3c ecf7 b1bd
00000150: 4b30 f7bd 4ce2 b53c 0f2a b9bc 262b 04be
00000160: 1ad9 ab3d 2ed3 43bd e4fe 693d 7f98 91bd
00000170: 279f 3f3f ed8e 93bf c398 d7bc ac32 a3bc
00000180: 52f1 133f 14f2 a53e befd 1dbd c0af cbbd
00000190: 3900 7bbe 5a69 ff3d cfbc 89bc dac6 ffbd
000001a0: a92b c03e 014f 5d3e 40b1 ebbd d76a 31bd
000001b0: bd1f 54be 6607 adbf daba eebd cdfd e2bb
000001c0: 5ea0 f53e 55cf 9f3e c66e 163c ccc9 a63e
000001d0: c46f ad3d f68c 32be 3514 16bc b425 bb3e
000001e0: 157d 29be 47b4 1e3f 2671 5fbb a73b 58bd
000001f0: e8fe 33bd 90c0 38be 1aa3 bbbc e94a 4cbd
00000200: e377 edbd 1225 5f3f f2e3 22bd 0054 773d
00000210: 37f1 f1bd 9caa 20bf dc6d 8d3c c972 303e
00000220: eda6 82be 5aba 8f3f 18f9 6a3c e7ef a33c
00000230: e30c 793e e8e6 fcbf 28b9 ad3b 9629 dc3d
00000240: 21bf 03bd 0ce2 263f f78c 21bd 614c d33e
00000250: cd3c ccbd 52d7 73bd 9d76 07bc 4f95 d43e
00000260: ba75 a83d 2762 823f 2229 343d e413 e2bc
00000270: 0834 4a3c 2f49 7ebf 5c54 43bd cea7 92bd
00000280: 9fc2 123e e6e3 3c3f 0621 ae3c 2b46 15bf
00000290: 27dd 843d 2eda 76bf 66fe 953c 6380 1abf
000002a0: a112 163c 0185 0abe 55d2 9fbc a57b b4bd
000002b0: b8f7 5d3e 90a9 12bf 259d f83c 5386 ac3c
000002c0: 7803 31bd b8dd cabd 0a74 b1bc c166 f6bc
000002d0: 4636 0b3e 86f3 37be 6295 133d 4cd8 e2bd
000002e0: ab76 0bbe d31d 31bd 02e3 233c bee3 4e3d
000002f0: bec7 93be d39a 563f b06b 0fbc 4390 c1bb
00000300: 8f5b 183f 8b04 733e 21f8 ddbc 81cd 983e
00000310: 696b 883e 4878 5abf 5bc2 16bb 9654 513e
00000320: 80f4 293f bfbf 8c3e e463 91bd 176c af3d
00000330: 2194 b13d 7b46 ffbe 000a 97bd e9dd 863d
00000340: 9f21 613f f914 bb3e 27f3 0abb b3b0 113e
00000350: f6e8 17be 3e6f cbbe 94ee afbc 3d7c 193e
00000360: fe87 813d 4827 4d3f de63 113d 300e 103c
00000370: a583 003f 0b70 333d c64f 6bbd d073 f33c
00000380: ed4e 86bd c489 503f f0c5 153d cb18 243d
00000390: 831d aa3e e2d1 be3d 4b29 08bd c470 a1bc
000003a0: a9d2 cd3d c474 463f 6d7f 2e3d 1b26 b5bd
000003b0: a65d 013e 2390 253e 9f50 29bd f573 f9bd
000003c0: 707f 6cbe 5280 173d f771 fe3c 7e04 91bc
000003d0: c1b9 ea3e b454 9d3e a5fb 24bd 64b0 e1bc
000003e0: 22a2 d03c 6c9b a53e 9046 25bd 2de2 0ebc
000003f0: 556e 003f c037 35bf f24e dd3c 5d85 f03c

fcs1.bias f4 [256]
-1.2125037 -0.5676634 -0.44781768 -0.22920115 -0.6693132 -0.1608536 -0.2266682 -0.39162475
-0.76243865 -0.9080956 0.034860317 -0.28795874 -0.47168475 -0.31769082 -0.46150506 0.3590529
-0.827362 -0.6566777 -0.5953186 -0.61760217 0.8636361 -0.58377373 -0.98930657 0.3825485
-0.6356712 -0.45429873 0.4334314 -0.53444105 -0.31181198 -0.70688975 -0.22875029 -0.24030776
-0.55701303 -0.225825 -0.7079453 -0.51750815 -0.2014107 -0.40540078 -0.31318384 -0.74171436
-0.4909884 -0.04784514 0.02119148 -1.0840642 -0.6272727 -0.48951998 -0.17818183 0.19066204
-0.6121004 -0.42108348 -0.51652265 -0.0951702 -0.92205375 -0.07920844 1.0164732 -0.52717566
-0.1497998 -0.8973126 -0.84116673 0.52618283 -0.6180787 -0.64958465 -1.0653816 -0.57359415
-0.0037996229 -0.8068223 -0.37038398 -0.27440956 -0.24046005 -0.44448602 -0.27505842 -0.5384939
-0.65102005 -0.19926803 -0.45580465 -1.0607716 -0.9641087 -0.31148714 0.31490275 -0.14120749
-0.21864504 -0.14033519 -0.42101425 -0.018140819 0.32209688 -0.1373223 -0.053743497 -0.513567
-0.30082956 -0.5562286 -0.400958 0.061259855 -0.4556026 0.12763855 0.23973244 -0.53529817
-0.88123775 -0.61552954 -0.7216582 -0.2705071 -1.14134 0.063591644 -0.69416857 -0.9484517
-0.37140283 -0.72625595 -0.580639 -0.67711866 1.0201488 -0.39725736 0.012568087 -0.79581815
-0.5096729 -0.6138241 -0.31337675 0.108505756 0.22712356 -0.014109963 -0.49024338 -0.93220407
-0.89649004 -0.89155626 -0.50380284 0.104271784 -0.5352846 -0.91718745 -0.7092507 -0.06720604
-0.81879663 -0.71650857 0.33596763 0.7892135 -0.14473711 -0.45335084 -0.47796613 -0.63030857
-0.38571295 0.05423515 -0.19761135 -0.5979557 -0.25604534 -0.79527575 -0.8612878 -0.5535867
-0.5007424 -0.6174098 -0.4416796 -0.29640317 -0.25000048 -0.7743859 -0.79094446 -0.61468387
-0.35727417 -0.22108002 -0.4204252 -0.78790146 -1.2918808 -0.31866843 -0.5512677 -0.89116734
-0.7692884 -0.5900641 -0.50113904 -0.6802026 -0.27851734 -0.34849682 -0.07229742 -0.16776331
-0.92982125 -0.7812833 -0.43121493 -0.08918903 -0.6168702 -0.3386572 -0.6847417 0.03145104
-0.45440343 -0.70293903 -0.7922582 -0.017162628 -0.58086056 -0.88142747 -0.2311453 -0.09307091
-0.68632585 -1.1784718 -0.30835643 -0.40226388 -0.073473334 0.08336563 0.1509215 -0.2765389
-0.2114896 -0.64230746 -0.04959194 -0.48220465 -0.010501888 -0.3959029 -0.25260496 -0.23331898
-0.22646669 -0.26349485 -0.7016632 -0.7160331 -0.324921 -0.8703654 -0.1620063 -0.8953999
0.14406219 0.1272277 -0.5246641 -0.20283383 -0.7912948 -0.18947218 -0.18336007 -0.12301376
-0.30172536 -0.22682284 -0.63732 -0.8847736 -0.036214147 0.34057686 -0.39914674 -0.6478389
-0.2681696 -0.2278054 -0.43589807 -0.5568991 -0.96502906 -0.02891044 -0.790443 0.17015085
-0.0065729143 -0.6510732 -0.8162662 -0.36199167 -0.6235239 -0.6269892 -0.62939274 -0.35445505
-0.16310105 -0.69938934 0.06930489 0.084270865 -0.5260791 -0.21442541 -0.59261596 0.32869455
-1.0077462 0.08309689 -0.4321218 0.10082569 -1.3494475 -1.2824312 0.17852259 -0.9298846
00000000: 5233 9bbf 6352 11bf 5c48 e5be b5b3 6abe
00000010: 1c58 2bbf ceb6 24be b51b 68be 0a83 c8be
00000020: 2e2f 43bf f478 68bf b1c9 0e3d 546f 93be
00000030: aa80 f1be 5fa8 a2be 644a ecbe c8d5 b73e
00000040: ffcd 53bf 081c 28bf cd66 18bf 2d1b 1ebf
00000050: 4117 5d3f 3272 15bf 3243 7dbf 66dd c33e
00000060: 59bb 22bf d899 e8be b8ea dd3e 21d1 08bf
00000070: d2a5 9fbe baf6 34bf 843d 6abe 3d13 76be
00000080: 6898 0ebf ab3e 67be e73b 35bf 6a7b 04bf
00000090: 9b3e 4ebe b190 cfbe a259 a0be fee0 3dbf
000000a0: d562 fbbe 44f9 43bd c199 ad3c 9ec2 8abf
000000b0: f294 20bf 5da2 fabe 4c75 36be e93c 433e
000000c0: 9db2 1cbf 4198 d7be d43a 04bf 98e8 c2bd
000000d0: b70b 6cbf 0938 a2bd cb1b 823f fcf4 06bf
000000e0: 1e65 19be 47b6 65bf b456 57bf ebb3 063f
000000f0: 683a 1ebf 2e4b 26bf 6d5e 88bf 11d7 12bf
00000100: 1803 79bb e88b 4ebf f8a2 bdbe 697f 8cbe
00000110: 293b 76be ac93 e3be 75d4 8cbe bcda 09bf
00000120: 40a9 26bf eb0c 4cbe 3a5f e9be 5dc7 87bf
00000130: d4cf 76bf 3e7b 9fbe ef3a a13e b298 10be
00000140: 7ce4 5fbe 07b4 0fbe 2e8f d7be 0e9c 94bc
00000150: e2e9 a43e 389e 0cbe 2422 5cbd 2079 03bf
00000160: 5506 9abe ff64 0ebf 5e4a cdbe 9deb 7a3d
00000170: be44 e9be aeb3 023e 6c7c 753e 4d09 09bf
00000180: cc98 61bf 5893 1dbf 97be 38bf e87f 8abe
00000190: 6e17 92bf 563c 823d 08b5 31bf bbcd 72bf
000001a0: 8328 bebe e9eb 39bf c2a4 14bf a657 2dbf
000001b0: 3c94 823f 5165 cbbe 61ea 4d3c bdba 4bbf
000001c0: ec79 02bf 9423 1dbf eb72 a0be 4438 de3d
000001d0: 1493 683e 792d 67bc 2e01 fbbe eda4 6ebf
000001e0: 5f80 65bf 083d 64bf 39f9 00bf 728c d53d
000001f0: 6908 09bf cccc 6abf 7491 35bf 52a3 89bd
00000200: a89c 51bf 1b6d 37bf f303 ac3e e509 4a3f
00000210: f735 14be 9a1d e8be fab7 f4be e75b 21bf
00000220: 2b7c c5be ad25 5e3d a15a 4abe a013 19bf
00000230: 6018 83be 3197 4bbf 5b7d 5cbf dcb7 0dbf
00000240: a730 00bf 920e 1ebf d423 e2be 28c2 97be
00000250: 1000 80be 283e 46bf 567b 4abf ec5b 1dbf
00000260: a4ec b6be cd62 62be f941 d7be e9b3 49bf
00000270: 5a5c a5bf 8228 a3be e11f 0dbf 8b23 64bf
00000280: 16f0 44bf 710e 17bf a64a 00bf c221 2ebf
00000290: d399 8ebe 2d6e b2be ab10 94bd 25ca 2bbe
000002a0: c408 6ebf 2f02 48bf 34c8 dcbe bda8 b6bd
000002b0: 35eb 1dbf 7a64 adbe 3b4b 2fbf ced2 003d
000002c0: 91a7 e8be d0f3 33bf 6fd1 4abf a498 8cbc
000002d0: 47b3 14bf 3ba5 61bf 5bb1 6cbe f69b bebd
000002e0: 0db3 2fbf 2ad8 96bf e5e0 9dbe 88f5 cdbe
000002f0: 3079 96bd 99bb aa3d 2a8b 1a3e 8296 8dbe
00000300: bb90 58be 436e 24bf eb20 4bbd 87e3 f6be
00000310: 1c10 2cbc c9b3 cabe 7055 81be 2ceb 6ebe
00000320: e2e6 67be cce8 86be 33a0 33bf f24d 37bf
00000330: 0c5c a6be 44d0 5ebf fbe4 25be ee38 65bf
00000340: 0a85 133e fa47 023e 6350 06bf acb3 4fbe
00000350: 4c92 4abf ff04 42be bec2 3bbe a3ee fbbd
00000360: bf7b 9abe 3f44 68be 6727 23bf 8680 62bf
00000370: 4955 14bd 1760 ae3e f65c ccbe c5d8 25bf
00000380: 874d 89be d245 69be 082e dfbe f090 0ebf
00000390: 250c 77bf 96d5 ecbc 795a 4abf 063c 2e3e
000003a0: 9a61 d7bb bcac 26bf d2f6 50bf f956 b9be
000003b0: 439f 1fbf 5d82 20bf e21f 21bf 227b b5be
000003c0: f603 27be 2e0b 33bf b9ef 8d3d 3496 ac3d
000003d0: 1fad 06bf 5692 5bbe aeb5 17bf a74a a83e
000003e0: d4fd 80bf b42e aa3d 123f ddbe b37d ce3d
000003f0: b2ba acbf b526 a4bf a0ce 363e eb0c 6ebf

fc2.weight f4 [128, 258]
0.012539849 -0.017911218 0.02838268 0.014993159 0.0621026 0.09622183 0.09831498 -0.045613494
-0.043677192 -0.054255888 0.03847057 -0.04872232 -0.16023014 -0.077661015 -0.07371124 0.008012901
0.008939465 -0.005086342 0.017894076 -0.048193026 -0.034529224 -0.00822909 -0.1385932 -0.0040288423
0.040830754 0.049749587 0.04768638 -0.10530278 -0.014271988 -0.055333924 -0.033530936 -0.035298172
-0.05022196 -0.062356897 -0.03994597 -0.041138403 -0.06960324 -0.05858174 -0.10927358 -0.023383407
-0.06805564 -0.017999096 -0.06269377 -0.092270575 0.0065709157 -0.07421549 -0.08171805 -0.082997926
-0.018999645 0.0342654 0.03340077 -0.06667033 0.05130586 -0.095850796 -0.08073046 -0.08264635
0.011663327 -0.0066951076 0.06414482 0.008947648 0.05162286 -0.10049945 0.017868236 0.022226674
-0.08422867 -0.064029485 -0.044579186 -0.03350209 -0.07744034 -0.053899065 -0.040745124 -0.017020328
-0.10731559 -0.09214963 -0.06705191 -0.007099594 0.02308483 -0.037921034 -0.064399794 -0.05811888
0.00250847 0.028638633 -0.049696892 -0.018090598 -0.09117365 0.0049820095 -0.07642416 -0.012224651
-0.047090553 -0.09429113 -0.041004624 0.031592943 0.031236928 0.04571624 -0.12243063 -0.09793191
-0.024775498 0.062065512 -0.07411704 -0.09299213 -0.07991914 0.029645287 -0.017331317 0.014566204
-0.081436634 -0.1296229 -0.07733231 -0.11143958 -0.0851265 -0.021651467 -0.05352818 -0.098772004
-0.044408627 -0.0034716562 -0.08740138 0.033430234 -0.04492213 -0.09951128 0.030189706 0.03728797
-0.023967473 -0.046615228 -0.017220605 -0.08969539 -0.027292019 0.024180116 -0.02094567 -0.006081975
0.03911116 -0.06060299 -0.076850615 0.046449024 0.045152146 0.023269407 -0.080969915 0.017968407
0.076387845 -0.09037637 -0.02862271 -0.014614085 -0.058133774 -0.028994912 0.013977939 -0.046624884
-0.0035483155 -0.07812329 -0.013956386 -0.047401663 0.017124152 0.029067121 0.017548209 -0.08517331
-0.14708436 -0.009707394 -0.027856875 0.014858398 0.0055192737 0.011027255 0.009534417 -0.016412294
-0.07813761 0.014404793 -0.04668878 -0.038683496 -0.07092724 0.053134415 -0.041941106 -0.0068630753
-0.080244035 -0.0073409933 -0.11034749 -0.06835604 -0.033239245 -0.080199204 -0.044010106 -0.1065347
-0.03818157 -0.044054836 -0.08999036 -0.1308582 0.005171152 -0.048415303 0.055273212 -0.012356296
-0.063473485 -0.092077576 -0.02180295 -0.020088343 -0.056843616 -0.011270534 -0.019342078 -0.10698301
-0.08703723 0.014907461 -0.093144394 0.028127769 -0.07157031 -0.022520397 0.0109816445 -0.04497193
-0.122862056 -0.10662216 0.026658671 -0.066438034 -0.056282558 -0.0411815 -0.06342963 -0.13123626
-0.008027173 -0.14290649 -0.026844993 -0.10958491 0.037560955 0.049446575 0.025943475 -0.0026582787
-0.08672036 -0.028678916 -0.0362873 0.0046635447 -0.08195955 0.019526234 -0.11179961 -0.10054598
0.082412615 0.030615086 -0.03850664 -0.049328834 -0.010243467 0.006939556 -0.017800502 -0.07348214
-0.14236116 -0.11141197 -0.0039685317 0.008661858 0.05011358 -0.06726068 -0.057774194 0.13130198
-0.042392183 -0.04026948 -0.058082577 -0.0014739127 -0.092506066 0.09982464 -0.014205562 -0.054745257
-0.07018644 0.009646753 0.18435702 -0.052056897 0.052003805 -0.030964423 0.047896687 -0.046392858
00000000: f073 4d3c 8cba 92bc cb82 e83c dea5 753c
00000010: 4c5f 7e3d f30f c53d 5d59 c93d 37d5 3abd
00000020: dbe6 32bd 6c3b 5ebd 5193 1d3d 0e91 47bd
00000030: 5f13 24be bd0c 9fbd ebf5 96bd 8b48 033c
00000040: d576 123c 54ab a6bb 9996 923c 0d66 45bd
00000050: 846e 0dbd 4ed3 06bc 60eb 0dbe 6104 84bb
00000060: 263e 273d 39c6 4b3d cb52 433d fca8 d7bd
00000070: 0ed5 69bc d3a5 62bd bc57 09bd d194 10bd
00000080: 8bb5 4dbd f269 7fbd 639e 23bd be80 28bd
00000090: 258c 8ebd 68f3 6fbd d4ca dfbd 8f8e bfbc
000000a0: c160 8bbd d772 93bc 9765 80bd 5bf8 bcbd
000000b0: d650 d73b 4afe 97bd cb5b a7bd d1fa a9bd
000000c0: 25a5 9bbc e059 0c3d 3fcf 083d 748a 88bd
000000d0: 1826 523d 6c4d c4bd 0356 a5bd 7d42 a9bd
000000e0: 8a17 3f3c a262 dbbb 5c5e 833d 2899 123c
000000f0: 7e72 533d a8d2 cdbd 6860 923c b714 b63c
00000100: 1580 acbd e421 83bd aa98 36bd 7d39 09bd
00000110: 0a99 9ebd 44c5 5cbd 5ce4 26bd 376e 8bbc
00000120: 47c8 dbbd f2b8 bcbd 8352 89bd b6a3 e8bb
00000130: 661c bd3c 1653 1bbd 0ae4 83bd 100e 6ebd
00000140: 2565 243b 919b ea3c f88e 4bbd bc32 94bc
00000150: 40b9 babd 2040 a33b 4584 9cbd e749 48bc
00000160: 06e2 40bd b51b c1bd 77f4 27bd 9a67 013d
00000170: 96e4 ff3c f440 3b3d e9bc fabd 8690 c8bd
00000180: fcf5 cabc 6838 7e3d adca 97bd a872 bebd
00000190: a5ac a3bd acda f23c 68fa 8dbc 16a7 6e3c
000001a0: 40c8 a6bd debb 04be 6760 9ebd 6f3a e4bd
000001b0: cd56 aebd 6b5e b1bc 5d40 5bbd fa48 cabd
000001c0: d2e5 35bd ba84 63bb 7fff b2bd 24ee 083d
000001d0: 4400 38bd 92cc cbbd 6750 f73c 45bb 183d
000001e0: 6f57 c4bc 9cef 3ebd 3a12 8dbc 37b2 b7bd
000001f0: 8393 dfbc 6115 c63c 4196 abbc 4e4b c7bb
00000200: 0633 203d d73a 78bd db63 9dbd 5541 3e3d
00000210: 75f1 383d 7c9f be3c 8ed3 a5bd 7b32 933c
00000220: 3b71 9c3d 3f17 b9bd 2c7a eabc ea6f 6fbc
00000230: ae1d 6ebd bd86 edbc ba03 653c bcf9 3ebd
00000240: db8a 68bb 1aff 9fbd 53a9 64bc 3f28 42bd
00000250: f347 8c3c 2c1e ee3c 43c1 8f3c 586f aebd
00000260: 489d 16be c30b 1fbc 1a34 e4bc a370 733c
00000270: 06db b43b a9ab 343c 3e36 1c3c 1373 86bc
00000280: 9c06 a0bd 1502 6c3c bc3c 3fbd 9672 1ebd
00000290: 4d42 91bd 79a3 593d 70ca 2bbd a6e3 e0bb
000002a0: fc56 a4bd b78c f0bb ddfd e1bd 40fe 8bbd
000002b0: e025 08bd 7b3f a4bd f143 34bd dd2e dabd
000002c0: 4764 1cbd d872 34bd de4c b8bd b1ff 05be
000002d0: c472 a93b 204f 46bd 2a66 623d 1072 4abc
000002e0: 63fe 81bd 2b93 bcbd 1a9c b2bc 4f90 a4bc
000002f0: dad4 68bd 0ca8 38bc 4773 9ebc e919 dbbd
00000300: 9340 b2bd 6c3e 743c 7dc2 bebd 356c e63c
00000310: 7493 92bd b27c b8bc 5bec 333c 7d34 38bd
00000320: 1a9f fbbd b85c dabd 4963 da3c aa10 88bd
00000330: 8a88 66bd efad 28bd 65e7 81bd cc62 06be
00000340: 6784 03bc 1456 12be 08ea dbbc 0e6e e0bd
00000350: 84d9 193d 7e88 4a3d 6987 d43c 8436 2ebb
00000360: 729a b1bd 0cf0 eabc fea1 14bd a6d0 983b
00000370: 69da a7bd 7bf5 9f3c 32f7 e4bd 0deb cdbd
00000380: f2c7 a83d 7dcc fa3c 23b9 1dbd 080d 4abd
00000390: 37d4 27bc 3765 e33b 5cd2 91bc ce7d 96bd
000003a0: 20c7 11be f52b e4bd 750a 82bb 77ea 0d3c
000003b0: e643 4d3d f8bf 89bd a2a4 6cbd 0774 063e
000003c0: 6da3 2dbd 9cf1 24bd ffe7 6dbd 4e30 c1ba
000003d0: d273 bdbd dc70 cc3d 72be 68bc 903c 60bd
000003e0: e9bd 8fbd 6a0d 1e3c 16c8 3c3e 9d39 55bd
000003f0: f101 553d 1aa9 fdbc 512f 443d 7006 3ebd

fc2.bias f4 [128]
-0.1655182 -0.14276336 -0.3319362 -0.07922251 -0.14702117 -0.059534222 0.018102406 0.021609215
-0.09743727 -0.066967 -0.02370869 -0.044534143 -0.009757972 0.43948692 -0.06053788 -0.14108849
-0.025457218 -0.15185146 -0.11538225 -0.06560126 -0.044026904 0.1543179 -0.090140395 -0.063724056
-0.15528114 -0.05201905 -0.019276716 -0.028269509 -0.05396857 0.012460255 -0.059117943 -0.16142565
-0.07031963 -0.024785895 -0.10945188 -0.015634252 -0.11774426 0.01571116 -0.094652034 -0.1612657
-0.09458694 -0.08612622 -0.054148685 -0.11982127 -0.115610905 -0.09562312 0.33838764 -0.055810124
-0.17500927 -0.08389638 0.015458757 -0.054505855 -0.021450475 -0.051384445 -0.0660919 -0.096803516
-0.010376792 0.08689837 -0.038869902 -0.0024052768 -0.15995774 0.06621658 -0.026249062 -0.03536022
-0.0760247 0.14508893 -0.04094648 -0.07694741 0.026412653 -0.09832791 -0.08199241 -0.08658427
-0.10301571 -0.104899384 -0.0124316 0.021335809 -0.04858379 -0.056326803 -0.024394363 -0.09574183
-0.016289003 -0.12745172 -0.027866771 -0.061914444 -0.24106167 -0.05258046 -0.067186214 -0.037035722
0.054947995 -0.07447092 -0.09624603 -0.041565336 -0.12916805 -0.12149567 -0.06377436 -0.13630912
-0.02093987 -0.05348058 -0.05510639 -0.07065512 -0.31385955 0.18142249 -0.0910386 -0.2833388
-0.100452505 0.018121885 0.4316298 -0.066537835 -0.12444849 -0.055493265 -0.124052554 0.00010116891
-0.14524207 -0.14134069 -0.052187487 -0.09559236 -0.10015803 -0.07626277 -0.028373016 -0.06338033
-0.08144915 -0.083546765 -0.052647784 -0.06988218 -0.055059176 -0.09295706 0.039578725 -0.075841576
00000000: 9a7d 29be 8f30 12be 8bf3 a9be 693f a2bd
00000010: b88c 16be 28da 73bd 7f4b 943c cf05 b13c
00000020: 318d c7bd ff25 89bd ba38 c2bc 6f69 36bd
00000030: e7df 1fbc 6e04 e13e 91f6 77bd 8079 10be
00000040: a88b d0bc f37e 1bbe 874d ecbd f459 86bd
00000050: 8e55 34bd 8305 1e3e 879b b8bd c281 82bd
00000060: 0502 1fbe ed11 55bd 34ea 9dbc 7595 e7bc
00000070: 260e 5dbd 1926 4c3c a825 72bd c44c 25be
00000080: bd03 90bd ca0b cbbc 4f28 e0bd 6713 80bc
00000090: e723 f1bd b1b4 803c edd8 c1bd d622 25be
000000a0: ccb6 c1bd f262 b0bd 03cb 5dbd db64 f5bd
000000b0: 69c5 ecbd 0ed6 c3bd 2541 ad3e 2899 64bd
000000c0: a135 33be ded1 abbd ba46 7d3c 8841 5fbd
000000d0: e8b8 afbc 7f78 52bd 315b 87bd ec40 c6bd
000000e0: 6c03 2abc c6f7 b13d 0c36 1fbd d9a1 1dbb
000000f0: f6cb 23be 8f9c 873d 4608 d7bc e1d5 10bd
00000100: d7b2 9bbd 3192 143e 7fb7 27bd 9b96 9dbd
00000110: 595f d83c 2560 c9bd a3eb a7bd 1853 b1bd
00000120: e7f9 d2bd 7dd5 d6bd e9ad 4bbc 6fc8 ae3c
00000130: ccff 46bd efb6 66bd b0d6 c7bc 4b14 c4bd
00000140: 8470 85bc b482 02be db48 e4bc 009a 7dbd
00000150: dfd8 76be 9c5e 57bd ed98 89bd c5b2 17bd
00000160: 2611 613d 3684 98bd a31c c5bd 6a40 2abd
00000170: a144 04be b9d2 f8bd 229c 82bd 9e94 0bbe
00000180: 178a abbc 740e 5bbd 3db7 61bd a2b3 90bd
00000190: 33b2 a0be d1c6 393e 7272 babd c811 91be
000001a0: 0bba cdbd 5974 943c 95fe dc3e fd44 88bd
000001b0: dade febd e84c 63bd 440f febd a52a d438
000001c0: 56ba 14be 9dbb 10be 8cc2 55bd edc5 c3bd
000001d0: a71f cdbd a82f 9cbd 876e e8bc 8ccd 81bd
000001e0: d0ce a6bd 911a abbd 34a5 57bd 631e 8fbd
000001f0: bb85 61bd 4560 bebd 4d1d 223d d452 9bbd

fc3.weight f4 [1, 128]
-0.003909433 0.010880588 -0.018619653 0.029520102 -0.0028011096 -0.008573618 -0.015204059 0.009647827
0.027853018 -0.009947547 0.019213518 -0.022725396 0.018817665 0.009755554 0.018855577 -0.015432234
-0.029389078 -0.00799957 0.026338562 0.0054614698 0.00082773744 -0.040489435 -0.012460789 -0.015599541
0.011676133 -0.007335521 0.018860914 0.027300414 0.0016856558 -0.011654909 0.0021198352 0.018797562
-0.0009321262 0.007947412 -0.012039387 -0.007446621 0.014827183 -0.0019526735 -0.023249066 -0.0072104004
-0.004056486 0.000843609 -0.0036935739 -0.009587273 0.0026749242 -0.018129673 0.02671272 0.006254883
-0.00693359 0.0051101726 -0.0070318305 0.052224927 0.01365264 0.0029382433 -0.0033157214 -0.006013095
-0.016844558 -0.019889468 0.02953017 -0.013067313 0.010806622 0.022575116 -0.0066253785 0.0012728922
-0.021961823 0.018432386 -0.0053285887 0.018906182 0.025407266 0.030969406 -0.017342443 0.006805398
-0.010919725 -0.002227102 -0.020719936 0.015981553 -0.020493515 -0.00010908491 0.008165223 -0.0036495132
0.0029939208 -0.009841243 -0.0247735 -0.016277052 0.0032992142 0.01751997 -0.020260299 -0.014336982
0.020630391 -0.022981206 -0.009311434 -0.00458766 -0.004888478 -0.005520713 0.0073137777 -0.012511989
0.0037955304 0.017290162 -0.020762986 0.016930182 -0.034806855 0.013078248 -0.0012170076 0.016714143
0.02145675 -0.021622142 0.02608603 -0.0030230929 0.002344916 -0.025702234 0.018072778 -0.0127104735
0.020310247 -0.0038927912 -0.0075387456 0.004270918 -0.0050359503 0.010467272 0.002993871 0.016292904
0.017408432 0.0017821138 -0.013105494 0.008268995 0.011027563 0.007715819 -0.012204599 -0.011643764
00000000: b31a 80bb 7e44 323c 3e88 98bc 24d4 f13c
00000010: d292 37bb 5c78 0cbc 721a 79bc eb11 1e3c
00000020: 032c e43c 09fb 22bc ab65 9d3c 9c2a babc
00000030: 8127 9a3c c2d5 1f3c 0377 9a3c 7bd7 7cbc
00000040: 5dc1 f0bc a110 03bc f8c3 d73c 21f6 b23b
00000050: 85fc 583a 40d8 25bd 5628 4cbc 3895 7fbc
00000060: 404d 3f3c cf5e f0bb 3482 9a3c 1ea5 df3c
00000070: 39f1 dc3a 3bf4 3ebc efec 0a3b 58fd 993c
00000080: ee59 74ba dd35 023c d940 45bc c902 f4bb
00000090: b7ed 723c daf0 ffba d374 bebc 3945 ecbb
000000a0: 45ec 84bb a425 5d3a e30f 72bb f013 1dbc
000000b0: c84d 2f3b ae84 94bc a2d4 da3c c3f5 cc3b
000000c0: 2b33 e3bb 3c73 a73b 456b e6bb cee9 553d
000000d0: 53af 5f3c 8b8f 403b 934c 59bb 7f09 c5bb
000000e0: 99fd 89bc 3def a2bc 41e9 f13c 4818 56bc
000000f0: 420e 313c 73ef b83c b419 d9bb 2dd7 a63a
00000100: 48e9 b3bc 84ff 963c 719b aebb 23e1 9a3c
00000110: e622 d03c 8db3 fd3c bd11 8ebc d1ff de3b
00000120: a5e8 32bc 92f4 11bb dbbc a9bc bfeb 823c
00000130: 04e2 a7bc 84c4 e4b8 6dc7 053c ac2c 6fbb
00000140: a835 443b 2a3d 21bc ccf1 cabc 7457 85bc
00000150: a137 583b 0a86 8f3c edf8 a5bc a9e5 6abc
00000160: 1101 a93c 1543 bcbc fc8e 18bc 1554 96bb
00000170: 872f a0bb 19e7 b4bb 6aa8 ef3b 16ff 4cbc
00000180: 6fbe 783b 19a4 8d3c 2317 aabc 2ab1 8a3c
00000190: a291 0ebd 2646 563c 0084 9fba 19ec 883c
000001a0: 11c6 af3c eb20 b1bc 5fb2 d53c 151f 46bb
000001b0: 2aad 193b 7e8d d2bc 5d0d 943c 973f 50bc
000001c0: ad61 a63c 331e 7fbb 9507 f7bb 0ff3 8b3b
000001d0: 9d04 a5bb ec7e 2b3c d234 443b b278 853c
000001e0: 219c 8e3c d195 e93a 6db8 56bc ae7a 073c
000001f0: f4ac 343c fbd4 fc3b ccf5 47bc 7cc5 3ebc
